…
  (conv42): Conv2d (30, 30, kernel_size=(3, 1), stride=(1, 1), groups=30), weights=((30, 1, 3, 1), (30,)), parameters=120
  (conv43): Conv2d (30, 30, kernel_size=(1, 3), stride=(1, 1), groups=30), weights=((30, 1, 1, 3), (30,)), parameters=120
  (conv44): Conv2d (30, 64, kernel_size=(1, 1), stride=(1, 1)), weights=((64, 30, 1, 1), (64,)), parameters=1984
  (pool): MaxPool2d(kernel_size=(2, 2), stride=(2, 2), dilation=(1, 1)), weights=(), parameters=0
  (dropout_1): Dropout2d(p=0.25), weights=(), parameters=0
  (dropout_2): Dropout2d(p=0.25), weights=(), parameters=0
  (relu): ReLU(), weights=(), parameters=0
  (bn_11): BatchNorm2d(15, eps=1e-05, momentum=0.1, affine=True), weights=((15,), (15,)), parameters=30
  (bn_12): BatchNorm2d(15, eps=1e-05, momentum=0.1, affine=True), weights=((15,), (15,)), parameters=30
  (bn_13): BatchNorm2d(15, eps=1e-05, momentum=0.1, affine=True), weights=((15,), (15,)), parameters=30
  (bn_14): BatchNorm2d(32, eps=1e-05, momentum=0.1, affine=True), weights=((32,), (32,)), parameters=64
  (bn_21): BatchNorm2d(15, eps=1e-05, momentum=0.1, affine=True), weights=((15,), (15,)), parameters=30
  (bn_22): BatchNorm2d(15, eps=1e-05, momentum=0.1, affine=True), weights=((15,), (15,)), parameters=30
  (bn_23): BatchNorm2d(15, eps=1e-05, momentum=0.1, affine=True), weights=((15,), (15,)), parameters=30
  (bn_24): BatchNorm2d(32, eps=1e-05, momentum=0.1, affine=True), weights=((32,), (32,)), parameters=64
  (bn_31): BatchNorm2d(30, eps=1e-05, momentum=0.1, affine=True), weights=((30,), (30,)), parameters=60
  (bn_32): BatchNorm2d(30, eps=1e-05, momentum=0.1, affine=True), weights=((30,), (30,)), parameters=60
  (bn_33): BatchNorm2d(30, eps=1e-05, momentum=0.1, affine=True), weights=((30,), (30,)), parameters=60
  (bn_34): BatchNorm2d(64, eps=1e-05, momentum=0.1, affine=True), weights=((64,), (64,)), parameters=128
  (bn_41): BatchNorm2d(30, eps=1e-05, momentum=0.1, affine=True), weights=((30,), (30,)), parameters=60
  (bn_42): BatchNorm2d(30, eps=1e-05, momentum=0.1, affine=True), weights=((30,), (30,)), parameters=60
  (bn_43): BatchNorm2d(30, eps=1e-05, momentum=0.1, affine=True), weights=((30,), (30,)), parameters=60
  (bn_44): BatchNorm2d(64, eps=1e-05, momentum=0.1, affine=True), weights=((64,), (64,)), parameters=128
  (bn_51): BatchNorm2d(15, eps=1e-05, momentum=0.1, affine=True), weights=((15,), (15,)), parameters=30
  (bn_52): BatchNorm2d(15, eps=1e-05, momentum=0.1, affine=True), weights=((15,), (15,)), parameters=30
  (bn_53): BatchNorm2d(15, eps=1e-05, momentum=0.1, affine=True), weights=((15,), (15,)), parameters=30
  (bn_54): BatchNorm2d(512, eps=1e-05, momentum=0.1, affine=True), weights=((512,), (512,)), parameters=1024
  (cpdfc1): Conv2d (64, 15, kernel_size=(1, 1), stride=(1, 1)), weights=((15, 64, 1, 1), (15,)), parameters=975
  (cpdfc2): Conv2d (15, 15, kernel_size=(6, 1), stride=(1, 1), groups=15), weights=((15, 1, 6, 1), (15,)), parameters=105
  (cpdfc3): Conv2d (15, 15, kernel_size=(1, 6), stride=(1, 1), groups=15), weights=((15, 1, 1, 6), (15,)), parameters=105
…
